final_models/deepsurv_weights.pth (torch, 17698 bytes, 5 tensors)

net.0.weight f4 [64, 24]
0	0xbec50898	-0.3848312
1	0xbe816159	-0.25269583
2	0x3dd8785f	0.10569834
3	0x3ceb38d9	0.02871363
4	0xbe20b963	-0.1569572
5	0xbe6cab44	-0.23112208
6	0xbd701c21	-0.058620576
7	0x3ceb81ef	0.02874848
8	0xbdd1748d	-0.102273084
9	0xbd1c0e1d	-0.038099397
10	0x3e0c2fe0	0.13690138
11	0x3ce73d43	0.028227454
12	0xbe334935	-0.17508395
13	0xbd97c344	-0.07410291
14	0xbd2ed6c1	-0.042685274
15	0xbcd0f0d8	-0.025505468
16	0xbcf77d86	-0.030211221
17	0x3df08d33	0.117456816
18	0x3de05555	0.10953776
19	0x3d54c199	0.05194244
20	0xbdb886f7	-0.090101175
21	0xbe1534fc	-0.14570993
22	0x3d8d511f	0.06900238
23	0x3e4624b4	0.19349939
24	0xbcd8c3fa	-0.026460636
25	0xbd108dce	-0.035291485
26	0x3e04c9dd	0.1296763
27	0xbe06beeb	-0.13158767
28	0xbd5846a4	-0.052801743
29	0x3dad18d9	0.08452005
30	0xbcbb9967	-0.022900296
31	0x3e2d0530	0.1689651
32	0xbe2cda85	-0.16880234
33	0x3e331226	0.17487392
34	0xbd3ee9d9	-0.046609733
35	0xbe0b48de	-0.13602015
36	0x3e3fe5d3	0.18740015
37	0xbde0dd70	-0.10979736
38	0xbe1a0da8	-0.15044272
39	0xbb565883	-0.0032706566
40	0x3e32137c	0.17390245
41	0x3d2d7525	0.042348046
42	0xbdd424f5	-0.103586115
43	0xbd4cfd88	-0.050046474
44	0xbc850f39	-0.01624261
45	0x3da7e184	0.081973106
46	0xbde2f915	-0.11082665
47	0xbded5b06	-0.11589627
48	0x3dedf902	0.1161976
49	0xbe4e5412	-0.20149258
50	0x3e644156	0.22290549
51	0xbe66fc4d	-0.22557183
52	0xbd2147db	-0.039375167
53	0x3d17bd3e	0.03704571
54	0xbd026204	-0.031831756
55	0x3e2e9c53	0.1705182
56	0xbe4bc47f	-0.19899176
57	0x3c04738b	0.008084188
58	0x3d832b02	0.064046875
59	0x3e50beeb	0.2038533
60	0xbb82b3ec	-0.0039887335
61	0xbe039159	-0.12848414
62	0x3d625335	0.055255134
63	0x3e7354f9	0.23762883
64	0xbc2ddcf5	-0.010611762
65	0x3d36bceb	0.04461376
66	0x3d9b4568	0.075815976
67	0xbdf47c07	-0.11937719
68	0xbe4af518	-0.19820058
69	0xbd8fe87d	-0.070267655
70	0x3e4ddad4	0.20103008
71	0x3e7e689e	0.24844596
72	0xbe994d2e	-0.29941696
73	0x3e02b537	0.1276444
74	0xbd3ebb5a	-0.04656539
75	0x3cd1a00d	0.025589013
76	0x3e6820a0	0.22668695
77	0x3e77d360	0.24201727
78	0x3d8db940	0.06920099
79	0xbb5d1723	-0.0033735714
80	0x3e32a967	0.17447434
81	0x3e533ac3	0.20627885
82	0x3e940729	0.28911713
83	0x3d609fb6	0.054839812
84	0xbe33492c	-0.17508382
85	0x3e4704aa	0.19435373
86	0xbe8d98ca	-0.2765563
87	0x3e079e32	0.1324394
88	0xbdd59c9f	-0.10430264
89	0x3e7bb3ec	0.24580353
90	0x3e8719cf	0.26386878
91	0x3e1b3ab4	0.15159112
92	0xbe35aa14	-0.17740661
93	0x3de4de6b	0.11175235
94	0xbe0c918c	-0.13727397
95	0x3ede6127	0.43433496
96	0xbea7108e	-0.32629818
97	0xbe77256f	-0.24135374
98	0x3c8f0d4f	0.0174624
99	0x3cd57598	0.02605705
100	0xbc9dbcf2	-0.019255135
101	0x3d88e81e	0.06684898
102	0xbe0e8c63	-0.13920741
103	0xbd231578	-0.039815396
104	0x3d065091	0.032791678
105	0x3d8d7677	0.06907361
106	0xbd27e058	-0.040985435
107	0x3d87ea6e	0.06636511
108	0x3de19db9	0.11016411
109	0xbd614000	-0.054992676
110	0xbe83bc65	-0.2572967
111	0xbca02c0f	-0.019552259
112	0x3d8eee12	0.06979002
113	0xbdc87eb3	-0.09789791
114	0x3e91dbce	0.2848801
115	0xbdb125b1	-0.08649767
116	0x3d980bf2	0.074241534
117	0xbe640586	-0.22267732
118	0xbe8fd31a	-0.28090745
119	0xbde98304	-0.11401942
120	0xbd165704	-0.03670408
121	0xbdfa171c	-0.12211439
122	0x3c99af17	0.018760247
123	0x3de64e89	0.11245448
124	0xbdd445b5	-0.10364858
125	0xbe15e036	-0.14636311
126	0x3cae889e	0.021305379
127	0x3d29cee3	0.04145707
128	0xbdbc6e0a	-0.09200676
129	0xbd35b2bf	-0.04435992
130	0x3d9d0e36	0.07668726
131	0xbd62ee1d	-0.055402864
132	0xbd115232	-0.03547878
133	0x3afb20ed	0.0019159593
134	0x3dbd229d	0.092351176
135	0x3e56fa70	0.20993972
136	0xbd78a540	-0.06070447
137	0x3c0015b5	0.007817675
138	0xbc2e791a	-0.01064899
139	0xbddc39dd	-0.10753224
140	0xbe2313f2	-0.15925577
141	0x3d3cce1f	0.04609501
142	0xbe8a9455	-0.27066293
143	0xbe2a56fd	-0.16634746
144	0xbe753288	-0.23945057
145	0xbe6c5afa	-0.2308158
146	0x3d879ffe	0.06622313
147	0x3d501740	0.050803423
148	0xbd51f9a6	-0.051263474
149	0x3e2046f9	0.15652074
150	0xbe09cb69	-0.13456501
151	0xbdad0555	-0.08448283
152	0x3e6b5b37	0.22984014
153	0xbd7fa66e	-0.06241458
154	0x3e2877df	0.16451977
155	0x3d4c5ee4	0.049895182
156	0x3dde97e0	0.108688116
157	0xbdb459ca	-0.088061884
158	0x3cbb12a1	0.022836031
159	0x3dfde064	0.12396315
160	0xbddb9809	-0.10722358
161	0xbdae48bb	-0.08509966
162	0x3e423c9a	0.1896843
163	0xbc58fc25	-0.01324371
164	0x3dc65517	0.09684198
165	0x3ddba3cc	0.10724601
166	0x3c3a171b	0.011358048
167	0x3e689aa0	0.22715235
168	0x3e092b84	0.13395506
169	0x3e919de6	0.2844078
170	0x3da9e6d7	0.08295982
171	0xbdec79f4	-0.11546698
172	0x3dab2937	0.083574705
173	0x3f0843d6	0.5322851
174	0x3efcad47	0.4935095
175	0x3db30131	0.087404616
176	0x3e2a03b1	0.1660297
177	0x3de74a78	0.11293501
178	0x3ec89732	0.39177853
179	0xbe54e50f	-0.20790504
180	0xbea855f3	-0.32878074
181	0x3e8c461d	0.27397242
182	0x3edebcab	0.43503317
183	0x3d893e68	0.06701356
184	0x3df58712	0.11988653
185	0x3ead0dbe	0.33799547
186	0x3ebe5a6c	0.3717836
187	0x3e014983	0.12625699
188	0x3e9544d9	0.2915409
189	0x3d88bc99	0.06676597
190	0x3e255cb9	0.16148652
191	0x3e5a76e5	0.21334417
192	0x3d6b5c8f	0.057461318
193	0xbe6cd100	-0.23126602
194	0xbba2f945	-0.004973563
195	0xbd485b9b	-0.048915487
196	0xbc871590	-0.016489774
197	0xbe59cecc	-0.21270293
198	0xbe96466e	-0.2935061
199	0x3dc7a764	0.09748724
200	0xbe0aaf72	-0.1354349
201	0xbe59335c	-0.21210998
202	0x3cffcef3	0.03122661
203	0x3cc2e769	0.023791986
204	0xbd4f9c8f	-0.050686415
205	0xbd246bf6	-0.040142022
206	0x3cdc5020	0.026893675
207	0x3dbc845c	0.09204933
208	0xbd18aed2	-0.037276097
209	0xbb4a53bd	-0.0030872666
210	0xbd801da5	-0.06255654
211	0xbcc2c5ed	-0.023776019
212	0x3e4085f9	0.18801107
213	0x3e73363f	0.23751162
214	0x3e88f325	0.26748005
215	0x3ef6f0bf	0.4823055
216	0xbd8be760	-0.06831241
217	0x3e027f7e	0.12743947
218	0x3e2a5d65	0.1663719
219	0x3def960f	0.11698543
220	0x3db69351	0.08914817
221	0xbd9283e5	-0.07154063
222	0x3e20bd38	0.15697181
223	0x3b090b25	0.0020911184
224	0x3e4e658a	0.20155922
225	0x3d3bd65d	0.04585873
226	0xbcd667e9	-0.026172595
227	0xbbede231	-0.00725963
228	0xbe222237	-0.15833364
229	0xbe1af25d	-0.15131517
230	0x3d76eb80	0.060283184
231	0xbce153e8	-0.02750583
232	0x3dcb2490	0.09919083
233	0x3e66659f	0.22499703
234	0x3ec4740e	0.38369793
235	0xbca4ff60	-0.020141304
236	0x3e8b7850	0.2724023
237	0x3cf833fc	0.030298226
238	0x3dde7b11	0.10863317
239	0xbf2b255b	-0.66853875
240	0x3e5fc3d0	0.2185204
241	0x3e4780e0	0.19482756
242	0x3b5f8f6a	0.003411258
243	0x3d080017	0.03320321
244	0x3d45cd6a	0.0482916
245	0x3de66e2a	0.11251481
246	0x3e1d7b30	0.15379024
247	0xbc0e80e9	-0.008697727
248	0xbda3b3df	-0.07993292
249	0x3e32037c	0.17384142
250	0xbd9b87cb	-0.0759426
251	0xbc1f7dd1	-0.009734587
252	0x3d1d6ab5	0.038431842
253	0x3cadfeaa	0.021239597
254	0xba9021f3	-0.0010996446
255	0xbdb68bb0	-0.08913362

net.0.bias f4 [64]
0	0xbe9b5940	-0.3034153
1	0xbd188553	-0.037236523
2	0xbed82992	-0.42219216
3	0xbea42a2c	-0.32063425
4	0xbdc8ceb3	-0.0980505
5	0xbe838bca	-0.25692588
6	0xbcff00cb	-0.031128308
7	0xbf10941a	-0.56475985
8	0xbef52433	-0.4787918
9	0x3cbb6465	0.02287502
10	0x3e5c28b1	0.21499898
11	0xbebcb9f8	-0.36860633
12	0x3e63311a	0.221867
13	0x3b921ae8	0.004458774
14	0xbccf665b	-0.025317362
15	0x3eb72e84	0.35777676
16	0x3e91f683	0.28508386
17	0xbe7fc333	-0.24976806
18	0xbbd64ea6	-0.0065401373
19	0xbecffef4	-0.406242
20	0xbe73d2f4	-0.23810941
21	0x3db4dee2	0.08831574
22	0xbe0197b1	-0.12655522
23	0xbcd916f1	-0.026500197
24	0xbe51a780	-0.20474052
25	0x3d2c4664	0.042059317
26	0xbee46f00	-0.44615936
27	0xbe9237c7	-0.2855818
28	0xbcbfb483	-0.023401504
29	0x3e15fc4e	0.14647028
30	0x3df6f632	0.12058677
31	0xbe46ead3	-0.19425516
32	0xbd9cb542	-0.0765176
33	0x3daa2876	0.083084986
34	0xbdf354b2	-0.11881389
35	0x3dde5886	0.10856728
36	0x3dc316c4	0.095258266
37	0xbe7a511b	-0.24445002
38	0x3e064747	0.13113128
39	0xbd5495fd	-0.051900852
40	0xbe1a1cc2	-0.15050033
41	0x3e1cd2a4	0.15314728
42	0x3d230aab	0.039805096
43	0xbe8e2b2e	-0.27767318
44	0xbec56a76	-0.38557786
45	0x3cf5b6f8	0.029994473
46	0xbd880303	-0.066411994
47	0xbe8fa5e1	-0.28056243
48	0xbeee06d0	-0.46489573
49	0xbda451bb	-0.08023401
50	0xbe95aaa1	-0.29231742
51	0xbe7bd33d	-0.245923
52	0xbe5b1aab	-0.21396892
53	0xbe5f5ad8	-0.21811998
54	0x3dd8ceb3	0.105863
55	0xbf0d4beb	-0.55193967
56	0xbdd80ecc	-0.10549697
57	0xbe73732f	-0.23774408
58	0xbedbf69b	-0.42961583
59	0xbe8e8606	-0.27836627
60	0x3e37d91f	0.17953919
61	0xbe3f7c73	-0.18699817
62	0xbee967db	-0.45587048
63	0x3de1dbb6	0.11028235

net.3.weight f4 [32, 64]
0	0x3e92f830	0.28704977
1	0xbd8f10ae	-0.06985603
2	0x3e9c2edd	0.30504504
3	0x3c3e18eb	0.011602621
4	0x3de8e43d	0.11371658
5	0x3e89cfae	0.2691626
6	0x3e04666e	0.12929699
7	0x3ce292ea	0.027657945
8	0x3dad740f	0.08469402
9	0x3d9d1d2e	0.07671581
10	0xbe1292b4	-0.14313775
11	0x3eb91499	0.36148527
12	0x3b8d7f2c	0.0043181386
13	0x3e255b69	0.16148151
14	0x3dcea844	0.10090688
15	0xbeccdc5b	-0.40011868
16	0xbed69b20	-0.41915226
17	0x3de17c3f	0.11010026
18	0xbd5ffcff	-0.054684635
19	0x3eb307fe	0.34967035
20	0x3dd1d7c5	0.10246233
21	0xbe7790de	-0.24176356
22	0xbe9cfa5d	-0.30659762
23	0xbdb939dd	-0.0904424
24	0x3e8360d4	0.25659811
25	0xbe3d9371	-0.18513276
26	0xbe03b3f1	-0.12861611
27	0x3e5039e0	0.20334578
28	0x3b36ee99	0.0027913211
29	0xbd926b70	-0.07149398
30	0xbe21da14	-0.15805846
31	0x3dd77f5e	0.1052234
32	0x3e4912c1	0.1963606
33	0xbe939173	-0.28821906
34	0xbd96bacc	-0.073598474
35	0xbd3682f9	-0.0445585
36	0xbe367bda	-0.17820683
37	0xbe5307e6	-0.20608482
38	0xbe090ecc	-0.13384551
39	0xbe1cee75	-0.15325339
40	0x3cf5e968	0.030018523
41	0xbbad3b6d	-0.005286625
42	0xbe256c7b	-0.16154663
43	0x3e78d3dc	0.24299568
44	0x3ef27091	0.47351506
45	0xbe08f810	-0.13375878
46	0x3c7fb6f1	0.0156075815
47	0x3e3e2e3b	0.18572323
48	0x3e75cfac	0.24005002
49	0xbe6dc0b0	-0.23218036
50	0xbc55678b	-0.013025175
51	0x3e1b80c8	0.15185845
52	0x3e362d17	0.17790638
53	0x3dbf3b4f	0.09337484
54	0x3d5c48ac	0.053780243
55	0xbd88a7dd	-0.066726424
56	0x3da20f06	0.07913022
57	0x3e3c89d2	0.1841195
58	0xbdf43915	-0.1192495
59	0xbd908446	-0.07056479
60	0xbe985420	-0.29751682
61	0x3e360127	0.17773877
62	0x3e027047	0.12738143
63	0xbe8e7097	-0.27820274
64	0x3cbd2beb	0.02309223
65	0xbdc75e90	-0.09734833
66	0xbe0ecd1e	-0.13945433
67	0xbd939ceb	-0.07207664
68	0xbd0b703e	-0.03404259
69	0x3dab95eb	0.08378204
70	0xbc319fb0	-0.010841295
71	0xbdba91df	-0.09109854
72	0xbc0d4b64	-0.008623932
73	0xbd74a0b6	-0.05972358
74	0x3d1c2773	0.03812356
75	0x3cdd0e2c	0.026984297
76	0x3d40f572	0.047109075
77	0x3d543c98	0.0518156
78	0x3ccb68b2	0.024830196
79	0x3d1591e0	0.03651607
80	0x3cea5319	0.028604077
81	0x3b244f22	0.002507158
82	0xbc0e4e77	-0.0086857
83	0xbcbb6bc6	-0.022878539
84	0x3dd3bcc0	0.103387356
85	0xbd5ed300	-0.054400444
86	0xbdb399db	-0.0876958
87	0x3e12e142	0.14343742
88	0xbd2a89ab	-0.041635197
89	0x3cfb7aaa	0.03069814
90	0xbdbc15cd	-0.09183846
91	0xbdc83456	-0.09775607
92	0xbbb95bb9	-0.005656686
93	0x3d0309b0	0.03199166
94	0xbdff28aa	-0.12458928
95	0x3d88f874	0.06688014
96	0x3de04112	0.10949911
97	0x3e2888f2	0.1645849
98	0x3d302cab	0.04301135
99	0xbd6c98aa	-0.05776278
100	0x3e05d79a	0.13070527
101	0xbcb7fd99	-0.022459792
102	0x3d0b046b	0.03393976
103	0x3da37c00	0.079826355
104	0xbdc3380d	-0.09532175
105	0x3b9f7160	0.0048658103
106	0xbd133dcd	-0.03594761
107	0x3c3c0575	0.01147591
108	0xbd9069c0	-0.0705142
109	0x3e4b2c11	0.19841029
110	0x3d4003f2	0.046878763
111	0xbd9e87fb	-0.0774078
112	0x3d377802	0.044792183
113	0xbe1f1efd	-0.15539165
114	0xbe18592f	-0.14877771
115	0xbe0ceebb	-0.13762943
116	0x3d518e06	0.051160835
117	0xbd9e8c2b	-0.07741579
118	0xbe3ba858	-0.18325937
119	0xbdc73f1c	-0.09728834
120	0xbabf635b	-0.0014601754
121	0xbd2623c5	-0.040561456
122	0xbd460858	-0.0483478
123	0x3da11efa	0.078672364
124	0x3ce00cdb	0.02734988
125	0xbe0d37b3	-0.13790779
126	0xb7bf477e	-2.2802265e-05
127	0xbc5f7ce0	-0.013640612
128	0x3d5554ec	0.05208294
129	0xbd7f5931	-0.06234092
130	0xbc722488	-0.014779218
131	0xbc1bcd8c	-0.009509455
132	0xbd3780b2	-0.044800468
133	0xbcb3d192	-0.021950517
134	0x3d6c5213	0.05769546
135	0x3d7c9da0	0.06167376
136	0xbc8ea4fd	-0.017412657
137	0xbc9d1290	-0.01917389
138	0x3c4bf800	0.0124492645
139	0x3d5cd7bb	0.053916674
140	0xbd899248	-0.06717354
141	0xbce11b22	-0.027478758
142	0x3d810d10	0.063013196
143	0x3d2e49a2	0.04255069
144	0x3d9046c4	0.070447475
145	0x3d1c51b7	0.038163867
146	0x39e84c42	0.00044307305
147	0xbd916153	-0.07098641
148	0xbc806653	-0.015673792
149	0x3e088d0e	0.13335058
150	0x3d2a7209	0.04161266
151	0xbcf03506	-0.029322159
152	0x3cd071d4	0.025444902
153	0xbb7f871f	-0.003899045
154	0xbc5bb6bc	-0.0134102665
155	0xbc2871d9	-0.01028105
156	0xbcf8e446	-0.030382287
157	0xbd65ffcc	-0.05615215
158	0x3daddd46	0.0848947
159	0xbd04c4da	-0.032414295
160	0x3b243317	0.0025054866
161	0x3e1cd5e9	0.15315975
162	0xbb9a7a44	-0.004714282
163	0xbdbef3f0	-0.09323871
164	0x3d1b43be	0.0379064
165	0x3d8e35b9	0.069438405
166	0x3d858e2e	0.06521259
167	0x3dd0318c	0.101657
168	0xbb0de448	-0.0021650959
169	0x3d13c49a	0.036076166
170	0x3d82334b	0.063574396
171	0x3c9db343	0.019250518
172	0xbca4c2ba	-0.020112384
173	0x3e1add0d	0.15123387
174	0xbd835fd3	-0.064147614
175	0x3d05741d	0.032581437
176	0xbd8605ea	-0.06544097
177	0x3c08f452	0.008359032
178	0x3a88dd35	0.0010441901
179	0xbd81c9b1	-0.06337298
180	0xba806631	-0.000979608
181	0x3d91782c	0.07102999
182	0xbd1cba84	-0.038263813
183	0x3d8ec5ae	0.06971298
184	0xbab805cb	-0.0014039812
185	0x3c83d22e	0.016091432
186	0x3dc4e0c8	0.09613186
187	0x3c8a7993	0.016903674
188	0x3e0ed538	0.13948524
189	0x3c599422	0.0132799465
190	0x3c1dc828	0.0096302405
191	0x3d3e91d6	0.0465258
192	0xbda3e006	-0.080017135
193	0xbd2f34bf	-0.042774912
194	0xbbfce5bc	-0.007717816
195	0xbbd13854	-0.0063848887
196	0x3b7c0474	0.0038454803
197	0xbcb90304	-0.022584446
198	0x3da56365	0.080755986
199	0x3aac35e1	0.0013138616
200	0xbd351992	-0.04421384
201	0xbd660087	-0.056152847
202	0x3cc5e922	0.024159018
203	0xbd96437b	-0.0733709
204	0xbd91716c	-0.07101712
205	0x3cde4519	0.027132558
206	0x3c0f76a2	0.008756312
207	0x3d66eaeb	0.05637638
208	0xbc8a3e91	-0.016875537
209	0xbd9b377c	-0.07578942
210	0xbaf67e0f	-0.0018805879
211	0x3d5aae6a	0.05338899
212	0xbc8fb0dc	-0.017540388
213	0x3da0b7a5	0.078475274
214	0x3cf46353	0.029832518
215	0x3d0fd246	0.03511264
216	0xbd1bc133	-0.038026046
217	0xbab20f85	-0.0013584947
218	0x3d424414	0.047428206
219	0xbd5df2f5	-0.05418678
220	0xbd479bca	-0.048732556
221	0x3db462b3	0.08807888
222	0x3cfb24d5	0.030657211
223	0xbd69497b	-0.056954842
224	0x3cde5f30	0.027144998
225	0x3cfb38ff	0.030666826
226	0x3ae6ced3	0.0017609246
227	0xbda445cf	-0.080211274
228	0x3da4b4b0	0.08042276
229	0x3c233383	0.009961012
230	0xbd6910a4	-0.056900635
231	0x3dc977d8	0.098373115
232	0xbd813c23	-0.06310298
233	0xbd3b819e	-0.04577791
234	0x3d80be76	0.062863275
235	0xbd5d1ac3	-0.0539806
236	0x3c60ee37	0.01372867
237	0x3df96cd8	0.121789634
238	0x3d4ce7ee	0.050025873
239	0xbd357e21	-0.04430974
240	0xbd8ecb84	-0.06972411
241	0x3c8eafb8	0.017417774
242	0x3d8f639a	0.07001419
243	0xbd464ef4	-0.04841514
244	0xbcd2fa89	-0.02575423
245	0xbcc02d7c	-0.023459189
246	0x3d057ec9	0.032591615
247	0x3c918db4	0.017767765
248	0xbbb05285	-0.005380931
249	0x3c26e94c	0.010187458
250	0x3d17b0d5	0.037033875
251	0xbd5b6dc0	-0.053571463
252	0x3d948bf5	0.07253257
253	0x3d6abc43	0.057308447
254	0xbcb012e5	-0.021493385
255	0x3d9e046a	0.07715686

net.3.bias f4 [32]
0	0xbf045b1f	-0.5170154
1	0xbe07d530	-0.13264918
2	0x3e103c6f	0.14085554
3	0xbbfc47a4	-0.00769897
4	0xbe3f4b58	-0.18681085
5	0x3aecddb9	0.001807145
6	0x3c89c680	0.016818285
7	0xbe427686	-0.18990526
8	0x3e0fd8af	0.14047502
9	0x3d4d24a4	0.05008377
10	0xbeb9f6cc	-0.36321104
11	0x3da8f0ee	0.08249079
12	0x3ddd1179	0.10794348
13	0x3c0fd8d1	0.00877972
14	0xbd96c15b	-0.073610984
15	0x3b9c6b01	0.004773498
16	0x3c66e103	0.014091733
17	0x3d87a99f	0.066241495
18	0x3d2f3d98	0.04278335
19	0xbe7aa8f1	-0.24478509
20	0xbc74f41b	-0.014950777
21	0x3d82b2f9	0.063817926
22	0xbdd1b800	-0.10240173
23	0x3d17120a	0.036882438
24	0xbe50dfd6	-0.20397887
25	0x3e01db25	0.12681253
26	0xbbe1adb2	-0.006887161
27	0x3cfc2594	0.030779637
28	0xbe5d1b94	-0.21592551
29	0xbe93fdd7	-0.28904602
30	0xbf021aef	-0.5082235
31	0x3df15803	0.11784365

net.6.weight f4 [1, 32]
0	0x3cf60b04	0.03003455
1	0xbd017a1e	-0.0316106
2	0xbcdaa144	-0.026688226
3	0xbd6e8d74	-0.05824037
4	0x3cf8b9d7	0.030362053
5	0xbd1996a6	-0.037497185
6	0xbce3b766	-0.027797412
7	0xbce989bc	-0.02850806
8	0x3cda5d0e	0.0266557
9	0xbc8b51d3	-0.01700679
10	0x3cf000cb	0.029297253
11	0x3cee9625	0.029124329
12	0xbca6136c	-0.020272933
13	0xbd23baa3	-0.039972913
14	0x3c9e7d4c	0.019346856
15	0x3c915dfb	0.017745009
16	0x3cb89420	0.022531569
17	0x3ce01162	0.027352039
18	0x3ca41127	0.02002771
19	0xbce886b7	-0.02838455
20	0x3cbd5ba5	0.023114989
21	0xbc483e2b	-0.012221853
22	0x3cdc8351	0.026918085
23	0xbcd04f7a	-0.025428522
24	0xbd1e2e5b	-0.038618427
25	0x3ce31fe3	0.027725166
26	0xbd0e7a5c	-0.03478466
27	0x3c870cb4	0.01648555
28	0xbcd6540c	-0.026163124
29	0x3cfafd69	0.030638414
30	0x3d161241	0.036638502
31	0xbcdd0fa8	-0.026985005
